Week3/models/model.tflite (tflite, 2488 bytes, 3 tensors)

std.constant i1 [16, 1] scale=0.0042242804 zero_point=0
000000 75 1c 11 e1 0c 81 a5 42 fe d5 d4 b2 61 78 19 df
       0.4942408 0.11827985 0.071812764 -0.13095269 0.050691366 -0.5364836 -0.38440952 0.2788025 -0.008448561 -0.18164405 -0.18586834 -0.32949388 0.4097552 0.50691366 0.10560701 -0.13940126

std.constant1 i1 [16, 16] scale=0.0126346145 zero_point=0
000000 ee fc 00 ec 05 17 ef ec e6 f8 03 01 00 fa f8 f5
       -0.22742306 -0.050538458 0.0 -0.25269228 0.06317307 0.29059613 -0.21478845 -0.25269228 -0.32849997 -0.101076916 0.037903845 0.0126346145 0.0 -0.07580769 -0.101076916 -0.13898076
000010 dc eb 27 14 f1 de e2 db f0 de 31 06 02 e6 ee f9
       -0.4548461 -0.26532692 0.49274996 0.25269228 -0.18951921 -0.4295769 -0.37903842 -0.46748075 -0.20215383 -0.4295769 0.6190961 0.07580769 0.025269229 -0.32849997 -0.22742306 -0.0884423
000020 00 16 07 e0 fe ff e9 06 e7 ef 81 1b 18 ea c9 01
       0.0 0.27796152 0.0884423 -0.40430766 -0.025269229 -0.0126346145 -0.29059613 0.07580769 -0.31586537 -0.21478845 -1.604596 0.34113458 0.30323076 -0.27796152 -0.6949038 0.0126346145
000030 0f 00 da f7 0e ec 13 1f 04 13 b4 e6 fd 06 b9 e0
       0.18951921 0.0 -0.48011535 -0.11371153 0.1768846 -0.25269228 0.24005768 0.39167306 0.050538458 0.24005768 -0.9602307 -0.32849997 -0.037903845 0.07580769 -0.89705765 -0.40430766
000040 0d ec f0 de eb f7 05 26 1a e4 6f 1a ea 1e 35 df
       0.16424999 -0.25269228 -0.20215383 -0.4295769 -0.26532692 -0.11371153 0.06317307 0.48011535 0.32849997 -0.3537692 1.4024422 0.32849997 -0.27796152 0.37903842 0.6696346 -0.41694227
000050 1a f3 f1 19 0f 03 1b e1 de 13 f6 19 ff f6 1b 18
       0.32849997 -0.16424999 -0.18951921 0.31586537 0.18951921 0.037903845 0.34113458 -0.39167306 -0.4295769 0.24005768 -0.12634614 0.31586537 -0.0126346145 -0.12634614 0.34113458 0.30323076
000060 f0 1c da 1b 1b 20 e5 1a f5 ff 96 0b 00 01 cd de
       -0.20215383 0.3537692 -0.48011535 0.34113458 0.34113458 0.40430766 -0.34113458 0.32849997 -0.13898076 -0.0126346145 -1.3392692 0.13898076 0.0 0.0126346145 -0.6443653 -0.4295769
000070 0d f6 16 e3 ed fc 0e e9 fa eb 5c fc 1d 02 5b e2
       0.16424999 -0.12634614 0.27796152 -0.36640382 -0.24005768 -0.050538458 0.1768846 -0.29059613 -0.07580769 -0.26532692 1.1623845 -0.050538458 0.36640382 0.025269229 1.1497499 -0.37903842
000080 e1 f5 15 ec f4 00 13 05 ec 0c 1d 14 0e e7 0b f4
       -0.39167306 -0.13898076 0.26532692 -0.25269228 -0.15161538 0.0 0.24005768 0.06317307 -0.25269228 0.15161538 0.36640382 0.25269228 0.1768846 -0.31586537 0.13898076 -0.15161538
000090 19 00 d7 05 27 02 15 ea ea 02 9b 00 0c fa e8 ea
       0.31586537 0.0 -0.5180192 0.06317307 0.49274996 0.025269229 0.26532692 -0.27796152 -0.27796152 0.025269229 -1.2760961 0.0 0.15161538 -0.07580769 -0.30323076 -0.27796152
0000a0 fd 00 14 fd 0b 02 ef ee 06 ee 01 0d 06 e6 f7 11
       -0.037903845 0.0 0.25269228 -0.037903845 0.13898076 0.025269229 -0.21478845 -0.22742306 0.07580769 -0.22742306 0.0126346145 0.16424999 0.07580769 -0.32849997 -0.11371153 0.21478845
0000b0 f7 09 f8 f1 21 ff 0e f3 ec 12 26 1d f2 e9 28 18
       -0.11371153 0.11371153 -0.101076916 -0.18951921 0.41694227 -0.0126346145 0.1768846 -0.16424999 -0.25269228 0.22742306 0.48011535 0.36640382 -0.1768846 -0.29059613 0.50538456 0.30323076
0000c0 e0 fb f3 f4 05 1d 1d fb fd 1e fc 11 e8 07 09 03
       -0.40430766 -0.06317307 -0.16424999 -0.15161538 0.06317307 0.36640382 0.36640382 -0.06317307 -0.037903845 0.37903842 -0.050538458 0.21478845 -0.30323076 0.0884423 0.11371153 0.037903845
0000d0 12 f2 36 fb dc 1c f9 ef f3 e7 6f 0c 1d 00 45 fd
       0.22742306 -0.1768846 0.68226916 -0.06317307 -0.4548461 0.3537692 -0.0884423 -0.21478845 -0.16424999 -0.31586537 1.4024422 0.15161538 0.36640382 0.0 0.8717884 -0.037903845
0000e0 0e f0 0b 19 1a fa e0 19 1f 13 36 1c 12 eb 3b 0c
       0.1768846 -0.20215383 0.13898076 0.31586537 0.32849997 -0.07580769 -0.40430766 0.31586537 0.39167306 0.24005768 0.68226916 0.3537692 0.22742306 -0.26532692 0.7454423 0.15161538
0000f0 b4 cb e6 13 fa eb f1 06 1c fa 18 e5 eb cb 0c f4
       -0.9602307 -0.6696346 -0.32849997 0.24005768 -0.07580769 -0.26532692 -0.18951921 0.07580769 0.3537692 -0.07580769 0.30323076 -0.34113458 -0.26532692 -0.6696346 0.15161538 -0.15161538

std.constant2 i1 [1, 16] scale=0.008502443 zero_point=0
000000 21 a5 8b ca 5e 1d ce 42 9d ce 1f b0 df 54 2f 81
       0.28058064 -0.77372235 -0.99478585 -0.45913193 0.7992297 0.24657086 -0.42512217 0.5611613 -0.84174186 -0.42512217 0.26357573 -0.68019545 -0.28058064 0.71420527 0.39961484 -1.0798103
