Week3/models/model_no_quant.tflite (tflite, 2788 bytes, 5 tensors)

dense_3/bias f4 [16]
0	0x00000000	0.0
1	0x3e3e2b38	0.18571174
2	0x3ed37fe6	0.41308516
3	0x3e799502	0.24373248
4	0xbe98b9fc	-0.29829395
5	0x00000000	0.0
6	0x3ed6234b	0.418238
7	0xbea1c215	-0.31593385
8	0x3e4c5250	0.19953275
9	0x3ec68f89	0.38781384
10	0xbd8b17c6	-0.06791644
11	0x3e3e5bf6	0.18589768
12	0x00000000	0.0
13	0xbea83789	-0.3285487
14	0xbe8786c2	-0.2647
15	0x3e55c657	0.20876442

dense_2/bias f4 [16]
0	0x3a264a88	0.00063435035
1	0x3e9bfec6	0.30467814
2	0xbe83ab56	-0.25716656
3	0x00000000	0.0
4	0x3ea99b8e	0.3312649
5	0x00000000	0.0
6	0x00000000	0.0
7	0x3e39bee9	0.18139233
8	0x00000000	0.0
9	0x00000000	0.0
10	0x3f6389a5	0.88881904
11	0x00000000	0.0
12	0x3e437b14	0.1908992
13	0xbe903506	-0.28165454
14	0xbed6f327	-0.41982386
15	0x00000000	0.0

std.constant f4 [16, 1]
0	0x3efe1eb5	0.49632803
1	0x3df61800	0.120162964
2	0x3d929e8c	0.07159147
3	0xbe04856e	-0.12941524
4	0x3d56046a	0.052250303
5	0xbf0956fd	-0.5364836
6	0xbec41c88	-0.38303018
7	0x3e8e4935	0.27790228
8	0xbc1d8500	-0.009614229
9	0xbe3b51ae	-0.18292877
10	0xbe3d0e32	-0.18462446
11	0xbea9518e	-0.33070034
12	0x3ed247e3	0.4107047
13	0x3f0149a7	0.5050301
14	0x3ddb2aed	0.10701547
15	0xbe0f65ec	-0.14003724

std.constant1 f4 [16, 16]
0	0xbe69b787	-0.22823916
1	0xbd57f1c0	-0.052720785
2	0xbbbf46c0	-0.0058372915
3	0xbe81e0e8	-0.25366902
4	0x3d788e20	0.060682416
5	0x3e92bc6f	0.28659388
6	0xbe5d405c	-0.21606582
7	0xbe829290	-0.25502443
8	0xbeaaf5b0	-0.3339057
9	0xbdced478	-0.10099119
10	0x3d105740	0.035239458
11	0x3c817160	0.015801132
12	0x3b10ff80	0.0022124946
13	0xbda3fae8	-0.08006841
14	0xbdc56040	-0.09637499
15	0xbe0c7ab4	-0.13718683
16	0xbee933cc	-0.4554733
17	0xbe89f93f	-0.26947972
18	0x3ef995ab	0.48747
19	0x3e800915	0.2500693
20	0xbe4060f4	-0.18786985
21	0xbedbebe1	-0.429534
22	0xbec53207	-0.3851473
23	0xbef1074c	-0.4707588
24	0xbe510646	-0.2041255
25	0xbed95816	-0.42450017
26	0x3f1f7431	0.6228667
27	0x3d9f7ee4	0.07787874
28	0x3cfdb2fa	0.030969132
29	0xbea8e7de	-0.329894
30	0xbe6c6286	-0.23084459
31	0xbdb0fe3c	-0.08642241
32	0x3b89ba3d	0.0042031095
33	0x3e8eac40	0.2786579
34	0x3db21378	0.086951196
35	0xbed17481	-0.40909198
36	0xbca2c3ee	-0.019868817
37	0xbc84f480	-0.016229868
38	0xbe9598c4	-0.29218113
39	0x3d99b104	0.07504466
40	0xbea4e010	-0.32202196
41	0xbe5f6b29	-0.21818222
42	0xbfcd6367	-1.604596
43	0x3eb07d3d	0.3447055
44	0x3e9be5e9	0.30448845
45	0xbe90c34d	-0.28274003
46	0xbf31fb2d	-0.6952389
47	0x3c027b80	0.007964015
48	0x3e401331	0.18757321
49	0xbb1ab939	-0.0023608936
50	0xbef47a7f	-0.47749707
51	0xbdec32ec	-0.1153315
52	0x3e3422d8	0.17591417
53	0xbe839aac	-0.25703943
54	0x3e70dd46	0.23521909
55	0x3ec812c1	0.39076808
56	0x3d4d6758	0.050147384
57	0x3e75d86a	0.24008337
58	0xbf75172f	-0.957385
59	0xbea6258a	-0.32450515
60	0xbd133a69	-0.035944376
61	0x3d9e3f2f	0.07726895
62	0xbf641c1d	-0.891054
63	0xbecf8059	-0.4052761
64	0x3e231344	0.15925318
65	0xbe8026c1	-0.25029567
66	0xbe4b4d32	-0.19853666
67	0xbedaf087	-0.42761633
68	0xbe87e4fa	-0.26541883
69	0xbde3ece4	-0.11129168
70	0x3d891ad0	0.06694567
71	0x3ef5d913	0.48017177
72	0x3ea6ad65	0.32554165
73	0xbeb4d2ae	-0.35316986
74	0x3fb36cc1	1.4017564
75	0x3ea878f1	0.3290477
76	0xbe8c4562	-0.27396685
77	0x3ec12f02	0.37731177
78	0x3f2c6d6a	0.6735445
79	0xbed887a9	-0.42291
80	0x3ea50695	0.32231584
81	0xbe27d1d0	-0.16388631
82	0xbe470a48	-0.19437516
83	0x3ea336db	0.3187779
84	0x3e3da216	0.18518862
85	0x3d118cf8	0.03553483
86	0x3eb14593	0.34623393
87	0xbec84e61	-0.39122298
88	0xbedbf471	-0.42959931
89	0x3e7a421a	0.24439278
90	0xbe00ec80	-0.12590218
91	0x3ea23d25	0.31687275
92	0xbc822550	-0.015886933
93	0xbe016812	-0.12637356
94	0x3eab9a21	0.3351603
95	0x3e995b3b	0.29952416
96	0xbe48d8cb	-0.1961395
97	0x3eb5fa36	0.35542458
98	0xbef6c500	-0.48197174
99	0x3eacd60d	0.33757058
100	0x3eab78b9	0.33490542
101	0x3ed1d9e1	0.4098654
102	0xbead7111	-0.33875325
103	0x3ea80302	0.32814795
104	0xbe0e080c	-0.13870257
105	0xbbd9f540	-0.0066515505
106	0xbfaaacde	-1.3334005
107	0x3e0ff292	0.14057377
108	0x3a107626	0.00055107696
109	0x3c0ca227	0.008583582
110	0xbf262b30	-0.6490965
111	0xbedb0ab9	-0.42781618
112	0x3e297eea	0.1655232
113	0xbdfa2989	-0.122149535
114	0x3e916cc0	0.28403282
115	0xbeb9fe3d	-0.3632678
116	0xbe7b7b89	-0.24558844
117	0xbd49f818	-0.049308866
118	0x3e2edb56	0.17075858
119	0xbe977a2b	-0.29585394
120	0xbd8f4448	-0.069954455
121	0xbe849fac	-0.2590307
122	0x3f9570e0	1.1675072
123	0xbd3dabc8	-0.0463064
124	0x3ebd9f38	0.37035537
125	0x3ccd2382	0.025041346
126	0x3f92c58e	1.1466539
127	0xbec05050	-0.37561274
128	0xbec8acc2	-0.39194304
129	0xbe09b428	-0.1344763
130	0x3e863790	0.26214266
131	0xbe8077a0	-0.25091267
132	0xbe1dfab9	-0.15427674
133	0xbbc0a580	-0.005879104
134	0x3e7b1716	0.24520525
135	0x3d8b11a7	0.06790476
136	0xbe82424c	-0.25441206
137	0x3e1d7d92	0.15379933
138	0x3ebd139c	0.36929023
139	0x3e82b86d	0.2553133
140	0x3e329672	0.17440203
141	0xbea2f4cc	-0.3182739
142	0x3e08506e	0.13311931
143	0xbe1aae72	-0.15105608
144	0x3ea1086c	0.31451738
145	0xbadf931b	-0.0017057391
146	0xbf0427c8	-0.516232
147	0x3d72a308	0.05923751
148	0x3efb8f8b	0.49132952
149	0x3cfb9e20	0.030715048
150	0x3e876c37	0.2644975
151	0xbe90223d	-0.28151122
152	0xbe8f1713	-0.27947292
153	0x3ce3eb30	0.027822107
154	0xbfa31d83	-1.2743381
155	0xbbab40c0	-0.0052262247
156	0x3e1cc21c	0.15308422
157	0xbd991e95	-0.07476536
158	0xbe98c82c	-0.2984022
159	0xbe914ae2	-0.28377444
160	0xbd0598dd	-0.032616485
161	0x3ba0e893	0.0049105375
162	0x3e833ae7	0.25630876
163	0xbd345550	-0.044026673
164	0x3e112604	0.14174658
165	0x3cb70690	0.022341996
166	0xbe564474	-0.2092455
167	0xbe62d885	-0.22152908
168	0x3d9d8cdc	0.076928824
169	0xbe6b247a	-0.22963133
170	0x3c0b49d8	0.008501492
171	0x3e2b3ee2	0.16723207
172	0x3d996c83	0.074914
173	0xbea6016c	-0.3242296
174	0xbdf4934e	-0.11942159
175	0x3e59bf1a	0.21264306
176	0xbde92340	-0.113836765
177	0x3de770cd	0.11300812
178	0xbdd447cb	-0.10365256
179	0xbe4747ef	-0.19461034
180	0x3ed47c7c	0.41501224
181	0xbc78c780	-0.015184283
182	0x3e300dba	0.17192736
183	0xbe2b3936	-0.16721043
184	0xbe83b544	-0.25724232
185	0x3e63204a	0.22180286
186	0x3ef76ae5	0.48323742
187	0x3ebb9cff	0.36643216
188	0xbe32f983	-0.17477994
189	0xbe971e1a	-0.29515153
190	0x3f01941a	0.5061661
191	0x3e9c3949	0.30512455
192	0xbed05900	-0.40692902
193	0xbd723ca0	-0.059139848
194	0xbe28b062	-0.16473535
195	0xbe1b823e	-0.15186402
196	0x3d748ce0	0.05970466
197	0x3eb86529	0.3601468
198	0x3ebe02c1	0.37111476
199	0xbd71d408	-0.0590401
200	0xbd2d1b28	-0.042262226
201	0x3ec11cb9	0.37717226
202	0xbd56a1f8	-0.05240056
203	0x3e60ab42	0.2194033
204	0xbe9cb376	-0.30605668
205	0x3da9a704	0.08283809
206	0x3de98a64	0.11403349
207	0x3d29d8f8	0.041466683
208	0x3e670bd4	0.22563106
209	0xbe320aac	-0.17386883
210	0x3f2e2cff	0.6803741
211	0xbd8ccb7c	-0.06874749
212	0xbee76f5a	-0.45202142
213	0x3eb22c45	0.347994
214	0xbdb1b278	-0.08676618
215	0xbe59babf	-0.21262644
216	0xbe2ad88e	-0.16684172
217	0xbea480d7	-0.32129547
218	0x3fb2c24d	1.3965546
219	0x3e1be296	0.15223154
220	0x3ebc539b	0.36782536
221	0xbb165f60	-0.0022945032
222	0x3f5f722f	0.87283605
223	0xbd2205f8	-0.039556473
224	0x3e2f66cf	0.17129062
225	0xbe495eab	-0.19665019
226	0x3e084e35	0.13311084
227	0x3ea476bb	0.32121834
228	0x3ea9140c	0.33023107
229	0xbd90b280	-0.07065296
230	0xbed1e616	-0.40995854
231	0x3e9f9eb9	0.31175783
232	0x3ec5dcd3	0.38645038
233	0x3e7af132	0.24506071
234	0x3f2e4c0f	0.68084806
235	0x3eb74eaf	0.35802218
236	0x3e692a12	0.22769955
237	0xbe84db24	-0.2594844
238	0x3f406b88	0.7516408
239	0x3e176e02	0.14788058
240	0xbf761972	-0.96132576
241	0xbf2abaa5	-0.66691047
242	0xbea8b049	-0.32946995
243	0x3e725cd2	0.2366822
244	0xbd9bf284	-0.076146156
245	0xbe89295a	-0.2678936
246	0xbe414145	-0.18872555
247	0x3d931170	0.0718106
248	0x3eb253eb	0.3482965
249	0xbd9bc1f8	-0.07605356
250	0x3e9d4982	0.30720145
251	0xbeafe5ca	-0.34355003
252	0xbe85c536	-0.26127023
253	0xbf2bd824	-0.6712668
254	0x3e1d811e	0.15381286
255	0xbe214ad2	-0.15751198

std.constant2 f4 [1, 16]
0	0x3e8ed42e	0.27896255
1	0xbf464ec1	-0.7746392
2	0xbf7e0f13	-0.9924175
3	0xbeed2b80	-0.4632225
4	0x3f4b83e4	0.79498124
5	0x3e78814c	0.24268073
6	0xbeda4311	-0.42629293
7	0x3f0f3a7d	0.5594862
8	0xbf569264	-0.83817124
9	0xbed9bdc2	-0.42527586
10	0x3e8623d9	0.26199225
11	0xbf2ecf9a	-0.68285525
12	0xbe8fc65e	-0.2808103
13	0x3f36786b	0.71277493
14	0x3ecc02c2	0.39845854
15	0xbf8a3739	-1.0798103
