Week6b/models/yesno/float_model.tflite (tflite, 68048 bytes, 4 tensors)

Conv2D_bias f4 [8]
00000000: 8c42 7c3c 508f 2e35 0a8d a2bd c6c0 ccb8
00000010: 9e18 41bc 5478 97bc 5d99 3bbb 3d28 983c
0.015396725 6.50286e-07 -0.07937057 -9.763385e-05 -0.011785654 -0.018489994 -0.0028625347 0.018573875

MatMul_bias f4 [4]
00000000: bb2c bb3c cba1 87bc 262e 983c bab8 cbbc
0.022848478 -0.016556641 0.018576693 -0.024868358

final_fc_weights/read/transpose f4 [4, 4000]
00000000: 6219 87bc 3a2f 2b3c 0240 103b 03a3 393a
00000010: 1dae ed3c a32b 963a 1ace aabb 5c2c 513b
00000020: 50fc a2bb 960a 8a3a ff6c 133a 1950 42bb
00000030: d05c 093d c487 29bb 9967 66bc 970b b9ba
00000040: 8723 2b3c 1372 38bb 6ac7 23bb 01f3 113c
00000050: eab1 1f3b 2d18 4e3c a140 2d3c 8001 3cbc
00000060: f3e4 47bc bd58 37bc 9567 61bc 1b13 88bb
00000070: 3232 10bc 165d 89bc bef2 543a 879e 83bc
00000080: 9aa0 5cbc 048d f23a 5edf 2c3b 215b f53b
00000090: 9d47 4c3b 9556 453c 70be 3abb 948e 843b
000000a0: a689 30ba 5f83 5eba 855e 4ebc dc32 9dbb
000000b0: cf6c 0f3c 5820 193c e40a ad3b d290 20bb
000000c0: 2f2b 1aba 4f28 15bc 11f2 5d3c 061a 223c
000000d0: 9422 7839 5ded 6d3c 6142 943b e9a2 a3bb
000000e0: b977 a3ba d712 93bb 7ec4 793b e129 a0bb
000000f0: eba2 c5ba be25 be3b 8799 8bbc e248 90bb
00000100: 6017 023c 8414 77bc e812 8cbb de2c 853a
00000110: b44d f43a 05c4 f8b9 820a 283c f862 a7bb
00000120: 3f76 aabb ee19 b8bb b7fc 05bb 3569 d13b
00000130: 53b8 923b dde8 a9bb faba 19bc 92db b038
00000140: 015c 89bc dc49 eabb 89d8 a03c f81b af3c
00000150: c974 873a d482 423c 45ae 9bb9 c190 943c
00000160: abaa 52bc 5e64 153c 4ee6 31bc 2f11 c4bb
00000170: 47c4 013c f88f 083b 122d c83a f538 673c
00000180: e300 0fbb eadc e1bb f467 153c 7479 493c
00000190: 1fc2 a03c 1bcf 8a3b acc1 d03b 05fd 403c
000001a0: c84c 63bb 3170 8abc c848 db3a fd1d e8bb
000001b0: 23c9 ab3b f10e 51bb 7b83 80bc b5b5 2a3c
000001c0: 23cd 7ebc 5111 04bc 4a20 a4bb ed0e 92bb
000001d0: fc38 6b3c 74a5 273b bfa7 19bc 9dba 403c
000001e0: a03a efbb 7f56 923b a3e9 313c 64a5 803b
000001f0: 52f0 9d3c c892 79bb 6c2e 31bc a19c 013c
00000200: b047 b13b e299 fdbb 9c88 2c3c f9f5 afbb
00000210: 9cc0 c13c 4019 223a dda9 ec3b 6b34 f83a
00000220: 632f b4bb e095 02bc 8782 493c fb77 c8ba
00000230: c117 ef3c eca1 2a3c dbfd 11bc b1be 523b
00000240: 12b2 c7ba 96d9 8fbb f9df 023b b34d 28bc
00000250: e8b9 bc3b 443f 2c3c eec4 41bc a348 dd3b
00000260: dd73 d3bb c397 98bb 2d88 abba 4639 80bc
00000270: 6e60 bcba ac4a 3cbc 6807 84bc a6f2 6d3c
00000280: d1a1 0a3b 4b52 a43c c0b8 383b 19e8 223a
00000290: 5ea5 203c 4ce2 5abc 2286 22bc 25f7 eabb
000002a0: 4944 1d3c d16f 39bc 5946 03bb 6483 5f3b
000002b0: 5d06 0f3c 5109 5f3c 145b 94bc ce6d 403b
000002c0: a2b1 de3b 75ea 18bc 9636 1b3c 58d7 36bc
000002d0: 21bb fcbb 4214 483c 327d 7e3a 3f90 c3bb
000002e0: d9f6 a13b 4d10 debb 22f4 e63b f31d f53b
000002f0: efa9 38bc a600 ac3b cc61 a33b ea7f 43bb
00000300: debd e1ba 7c9c 81bc b7d1 a63b 05ad 623c
00000310: 63de 08bc 6c69 4fbc e734 2dbc 320f 7ebb
00000320: 6652 4b3c 95eb 5a39 88e6 883b 49c7 743b
00000330: 9308 36bb f950 833b 97eb 103c 7958 cb3a
00000340: c584 6f3b bf31 b4bb ce3b 0c3b a80a 8f3b
00000350: 9ca6 b9bc 5f45 7a3b 1e8e 49bc bd0e 69bc
00000360: e8d3 d53c 7468 d439 e88a 66bc 1fe9 a83b
00000370: f203 4ebb e1bd 0e3b 4f13 f43b 1d28 39bb
00000380: 5cff 663c 04ea 86b9 0d62 c4b9 dc3c ebba
00000390: 83fc 0f3b 83dc 33bc 0ce8 4b3c 2f25 acbb
000003a0: df12 913c f33d ccba 573c 623c c477 b8ba
000003b0: a3ef 44bc 5843 2ebc 76c6 19bb a49e 16bc
000003c0: 4b9d c83a 5c76 3ebb c2fd efbb 5723 5438
000003d0: 8d46 48bc 74ab 173c d692 bc3b 1ce2 75ba
000003e0: 86de 173c 66c3 113c fa25 823b 1a19 173b
000003f0: 3946 133b 3ddc eb3b 3414 1dbb ee1c 0d3b
-0.016491596 0.010448271 0.0022010808 0.00070814806 0.029013688 0.0011457097 -0.0052125575 0.003191731
-0.0049739257 0.0010531719 0.00056238467 -0.0029649793 0.03353578 -0.0025868276 -0.014062786 -0.0014117834
0.010445482 -0.0028144165 -0.0024990686 0.008908034 0.002436752 0.012579006 0.010574491 -0.011474967
-0.012200582 -0.01119059 -0.013757606 -0.004152668 -0.00880103 -0.01676802 0.00081233296 -0.016066803
-0.013466025 0.0018505161 0.0026378254 0.00748767 0.0031170615 0.012044569 -0.0028494857 0.004045317
-0.00067343784 -0.0008488204 -0.012595777 -0.0047973227 0.008753969 0.00934609 0.0052808393 -0.0024500382
-0.00058810686 -0.009103849 0.013546483 0.0098939 0.00023664004 0.014521924 0.0045245145 -0.0049937856
-0.0012471593 -0.00448833 0.0038111503 -0.004887805 -0.001507846 0.005802839 -0.017040981 -0.0044032196
0.007940143 -0.015080575 -0.0042747147 0.0010160466 0.001863888 -0.00047448292 0.0102564115 -0.0051082335
-0.0052020843 -0.0056183254 -0.002044482 0.0063907155 0.0044775396 -0.00518523 -0.009382958 8.433232e-05
-0.016767504 -0.007149918 0.019634502 0.021375641 0.0010334487 0.011872012 -0.00029693745 0.01813543
-0.012858073 0.009118168 -0.010858132 -0.0059834938 0.007920331 0.0020837765 0.0015272221 0.014112701
-0.0021820597 -0.00689279 0.009119023 0.012297023 0.019623814 0.0042361147 0.0063707437 0.011779075
-0.0034683216 -0.0168992 0.0016730065 -0.007083653 0.005242483 -0.0031899775 -0.015687695 0.010419299
-0.015551838 -0.008060769 -0.005008732 -0.0044573457 0.014356848 0.0025580795 -0.009378373 0.011763242
-0.00730069 0.0044658775 0.010858926 0.003925966 0.019279633 -0.0038081873 -0.0108142905 0.007910878
0.005410157 -0.0077392915 0.010530617 -0.0053698984 0.023651414 0.0006183572 0.0072223977 0.001893652
-0.005498813 -0.007970303 0.012299187 -0.0015294546 0.029186131 0.010414582 -0.0089106215 0.0032157118
-0.0015235564 -0.004389952 0.0019969924 -0.010272431 0.0057594664 0.010513131 -0.011826737 0.0067530437
-0.006453021 -0.0046567633 -0.0013086848 -0.01565231 -0.0014372 -0.011492413 -0.016116813 0.014523184
0.002115358 0.020058772 0.0028186291 0.0006214395 0.009805052 -0.013359617 -0.009919675 -0.007170575
0.0095988 -0.011318163 -0.0020030944 0.0034105415 0.0087295445 0.013613061 -0.018109836 0.0029362324
0.006796078 -0.009333243 0.0094734635 -0.01115974 -0.007712737 0.012211861 0.00097079866 -0.005968123
0.0049427566 -0.0067768455 0.007048146 0.007480377 -0.011270984 0.0052491007 0.0049860235 -0.0029830881
-0.0017222723 -0.015821688 0.005090918 0.013835196 -0.008353802 -0.012659412 -0.010571695 -0.0038766381
0.012409782 0.00020877861 0.004177872 0.0037350229 -0.0027776107 0.0040074554 0.0088452315 0.0015514038
0.0036547643 -0.0054990943 0.002139795 0.004365284 -0.022662453 0.003818832 -0.01230195 -0.014224705
0.026102021 0.00040513615 -0.014071204 0.0051547433 -0.0031435457 0.0021780657 0.007448591 -0.002825267
0.014098968 -0.00025732827 -0.00037457087 -0.0017947215 0.0021970577 -0.010977867 0.012445461 -0.005253456
0.017709194 -0.0015582427 0.013808331 -0.0014073779 -0.0120200245 -0.010636173 -0.002346424 -0.009193096
0.0015305666 -0.0029062247 -0.0073239515 5.057765e-05 -0.012223852 0.009257186 0.005754809 -0.0009379701
0.009269362 0.008896684 0.0039718123 0.0023055733 0.0022472276 0.0071978853 -0.002396834 0.0021532136

first_weights/read f4 [1, 10, 8, 8]
00000000: 5ed6 48bc 7cc6 e13a 8335 5b3a 50cd 2bbd
00000010: b331 2ebc 256e fe3b 3f86 673d 5b4c 81bb
00000020: 65b0 f1bc 852d 15bc 956f 0d3c 36a8 c1bb
00000030: 984a f4bc c2ff f23a 620a 3e3d 7bc7 c1bc
00000040: 42e1 e9bc 78f2 37bd f44b 3b3c c6e5 d3bc
00000050: 5852 29bc f7f6 803c 8982 403c 24f9 0ebd
00000060: e3c2 0b3d a423 913c d808 383c b088 2b3c
00000070: bda9 70b9 a431 d13b 7e2d f03c a462 bbbc
00000080: 750d acbb 7f8f 373c 5720 1e3d 092b 083b
00000090: e85e 063d 0e1e 9abb 8b54 0f3b e908 62bd
000000a0: e12b e5bb f0c9 1e3d e6ba 083c e171 b53c
000000b0: 6a12 863c dc72 b13c 6506 8fbc 5745 50bd
000000c0: a0ee 24bd b560 cf3b 5483 653d eba6 d93c
000000d0: 3243 7a3c fa6d 763c 6abf f0bb 260a a0bd
000000e0: b417 93bd 5848 c2ba 30ec 3a3d abaa ab3c
000000f0: 4456 e93b 9ac0 9f3d 6a5d 52bd d7f4 95bd
00000100: a6bb bebb 8041 9dbc 02c9 31bc d04e 5cbd
00000110: d937 85bb fa71 1b39 1966 ac3c cc18 1c3c
00000120: 070a 083c e507 3bbc dd1c 2eba 3879 56bc
00000130: 8b23 11bd d053 85bb f6cf ac3c ff9f 9e3c
00000140: a6d5 5bba ebdb 00bd 46e5 3b3c 152f e1bc
00000150: 2d95 ac3b f2f6 893b 4562 4abc 059a 883b
00000160: a637 8b3b e659 f43c 22de c3bb 30ac e23b
00000170: abac 243b 8df0 febb 7959 a53c f992 043d
00000180: 6df7 27bd 1794 f83b e834 3f3d 2462 a1bb
00000190: c332 8f3c a59e cdba 28b3 a6bc 2670 8dba
000001a0: c9a4 3ebd 0150 273d 98ba adbc 0dfa eb3c
000001b0: bc73 be3c de07 c53b c126 08bd 207b 973c
000001c0: 00b5 c7bc 2825 a6bb 503a 6a3d 809c cc3c
000001d0: 8737 d2b8 0664 5b3a 15e1 04bc 132e dbbb
000001e0: 6e75 a5bc a1f0 11bd 0dae 1c3c 720e be3c
000001f0: 42c0 fbbb 86f6 593d c84d ebbc bf6c fb3a
00000200: 1dad 04bc 44ed a7bc 1984 9bbc 7c52 74bd
00000210: 86bb 653c 9cf0 94bc 2bcf 2e3c b4a9 543c
00000220: 9aa6 513c bae3 5dbc a328 d0bb 9e39 34bc
00000230: d5a6 9cbc 423c 09bc 0a22 47bb 7e4a a33b
00000240: 51f3 803c 9041 0fbd 3528 d93b 1437 c9bc
00000250: 67c6 133c c9c2 fcbb 467c 55bb 960c d4bb
00000260: 8f4e 313d 8b5b b33c afae 95bc 37f9 be3b
00000270: 2a1e ef3b 4ac7 1ebc a5e2 2fbc 1aa0 733b
00000280: 25e7 be3c 8f76 173c ce84 593d c139 883b
00000290: e436 ac3c 24cb f0bb 1d7e 1abd e898 1dbc
000002a0: 7f9a 193d d5fa a03c 4266 fdbc 50e0 9c3c
000002b0: 1ecb 233c 2105 e6ba cf4a 20bd 2369 673c
000002c0: 71e6 0a3d 8343 cabb 9465 903d eacd b33c
000002d0: 15ff 96bc 9236 67bc b8dc 15bc 07af 48bb
000002e0: e8a8 9d3c 6bb2 86bc f95d 22bc 9460 bf3c
000002f0: 459c 00bd 6e72 1e3d cf92 cbbb 27b2 5e3b
00000300: f3d5 0bbd 5256 37bc ceca 0bbd babc 81bd
00000310: 9506 453c 2138 acbc 0d94 d2bc 46ed 5f3c
00000320: bf63 f2bc 78f7 17bc 2616 14bd db41 adbc
00000330: 0db0 403a e1e7 b3bc ae73 f9bc c624 86bb
00000340: 12b8 31bc a933 16bd 24c2 8f3c 40e8 83bc
00000350: 8492 b73c fe6c 1abc 21d1 74bc 4f69 48bc
00000360: f676 1c3c ef81 073d 7adc 07bd 720d db3b
00000370: 2f5c 7e3c 20cd 03bb d3ae d3bc b59c e53c
00000380: 2cc2 c3bc 6eea fc3c d0f4 a13d a32b b4bb
00000390: d0b9 5d3c da57 e53b 72d9 bebc 7c1c c5bc
000003a0: 7ae1 9a3c 9689 fb3c d2be d3bc a4ec f03c
000003b0: 1606 a13a 8f12 093c 9a66 05bd c60e 1e3b
000003c0: 7021 f4bc 5dd0 943b 6628 a13d 7b1e ec3c
000003d0: b567 dabc f6f9 a5ba 2358 993c ef0e 8cbc
000003e0: f93a 34bd 5001 4dbc e5a2 a7bb 6802 c83c
000003f0: fbd2 3abd 3b98 373d 7b83 893b 58a4 fe3b
-0.01225814 0.0017225291 0.0008362161 -0.041943848 -0.010631966 0.007764595 0.05652451 -0.00394587
-0.029503057 -0.009105091 0.00863256 -0.005909945 -0.029820725 0.0018539357 0.04639662 -0.02365469
-0.028549794 -0.04490897 0.011431683 -0.0258664 -0.010334574 0.015742762 0.011749872 -0.034905568
0.034121405 0.01771719 0.011232577 0.010469601 -0.00022951416 0.0063840915 0.029318567 -0.022874184
-0.0052506276 0.011203646 0.03860506 0.0020777604 0.032805353 -0.00470329 0.002187046 -0.05518428
-0.006993756 0.0387668 0.008345341 0.022149028 0.016366202 0.021661215 -0.017459104 -0.050847378
-0.040266633 0.006328667 0.056033447 0.02656885 0.01527481 0.015040869 -0.007347037 -0.07814436
-0.071822554 -0.0014822586 0.045635402 0.020955404 0.0071208794 0.07800408 -0.051358618 -0.0732209
-0.0058207093 -0.019196272 -0.010851147 -0.0537861 -0.0040654955 0.00014824411 0.021044778 0.009527396
0.008303172 -0.011415456 -0.0006641874 -0.013090424 -0.035434287 -0.004068829 0.021095257 0.019363401
-0.0008386023 -0.03145973 0.011468237 -0.02748827 0.0052668066 0.0042103464 -0.012352531 0.004168751
0.004248577 0.029828023 -0.005977408 0.006917499 0.0025127332 -0.0077801407 0.020184265 0.032366727
-0.041007448 0.007586013 0.046681315 -0.0049250294 0.01748026 -0.0015687539 -0.0203491 -0.0010790869
-0.04654387 0.040847782 -0.021207139 0.028805757 0.023248546 0.0060129007 -0.033240084 0.018491328
-0.0243783 -0.0050703473 0.057184517 0.024976969 -0.00010023923 0.00083690917 -0.008110304 -0.006688842
-0.020197596 -0.035629872 0.009562981 0.023200247 -0.007682831 0.05321362 -0.028723612 0.0019182189
-0.008097914 -0.02049888 -0.018983888 -0.059648976 0.01402176 -0.018181138 0.01066951 0.0129799135
0.012796069 -0.013543064 -0.0063525005 -0.011000065 -0.01912252 -0.008376183 -0.003038528 0.0049832454
0.015741022 -0.034974635 0.0066271075 -0.024562396 0.009019471 -0.00771365 -0.0032575293 -0.006471227
0.04328781 0.021894237 -0.018271772 0.0058280486 0.007297297 -0.009691069 -0.010735189 0.0037174285
0.023303578 0.009244575 0.053105168 0.0041572754 0.021022268 -0.007348435 -0.037717927 -0.009618975
0.037500855 0.019650856 -0.03093255 0.01914993 0.009997157 -0.0017549136 -0.039133843 0.014124188
0.033911172 -0.006172599 0.070506245 0.021948773 -0.01843218 -0.014112132 -0.009146862 -0.0030621903
0.01924558 -0.016442498 -0.0099101 0.023361482 -0.03139903 0.038683347 -0.0062125693 0.0033980699
-0.034139585 -0.011190014 -0.034128956 -0.06334825 0.012025495 -0.021022858 -0.025705362 0.01366741
-0.029588578 -0.00927531 -0.036153935 -0.021149566 0.00073504524 -0.021961154 -0.030450668 -0.004093739
-0.010847108 -0.03667036 0.017548628 -0.016101956 0.022408731 -0.0094254 -0.014942438 -0.012232139
0.009549847 0.0330829 -0.033169247 0.0066849524 0.015524908 -0.0020111278 -0.025840199 0.028028825
-0.0238963 0.030873504 0.079080224 -0.005498366 0.013533071 0.006998998 -0.023297045 -0.024061434
0.018906344 0.030705255 -0.025847826 0.029409714 0.0012285139 0.008366241 -0.03256855 0.0024117692
-0.0298011 0.0045414404 0.078690335 0.028823128 -0.02666078 -0.0012662995 0.018718785 -0.017096965
-0.044001553 -0.01251252 -0.005115854 0.02441521 -0.045611363 0.044822913 0.004196582 0.007771056
