Week5/pre2023/training/models/yesno/model.tflite (tflite, 18712 bytes, 2 tensors)

final_fc_weights/read/transpose i1 [4, 4000] scale=0.0004584719 zero_point=0
00000000: dc17 0502 3f02 f507 f502 01fa 49fa e1fd
00000010: 17fa fb13 051b 17e7 e5e8 e2f7 eddb 02dd
00000020: e304 0610 071a fa09 fffe e5f6 1314 0cfb
00000030: ffec 1e16 0120 0af5 fdf6 08f5 fd0d dbf6
00000040: 11df f702 04ff 16f5 f5f4 fc0e 0af5 ec00
00000050: dbf0 2b2f 021a ff28 e414 e8f3 1105 031f
00000060: fbf1 141b 2b09 0e1a f8db 04f1 0bf9 de17
00000070: deee f5f6 1f06 ec1a f00a 1809 2af8 e811
00000080: 0cef 17f4 3401 1004 f4ef 1bfd 4017 ed07
00000090: fdf6 04ea 0d17 e60f f2f6 fdde fde7 dd20
000000a0: 052c 0601 15e3 eaf0 15e7 fc07 131e d806
000000b0: 0fec 15e8 ef1b 02f3 0bf1 0f10 e70b 0bf9
000000c0: fcdd 0b1e eee4 e9f8 1b00 0908 fa09 1303
000000d0: 08f4 050a cf08 e5e1 3901 e10b f905 10fa
000000e0: 1fff fffc 05e8 1bf5 27fd 1efd e6e9 fbec
000000f0: 03fa f000 e514 0dfe 1413 0905 0510 fb05
-0.016504988 0.010544854 0.0022923595 0.0009169438 0.028883731 0.0009169438 -0.005043191 0.0032093034
-0.005043191 0.0009169438 0.0004584719 -0.0027508314 0.03346845 -0.0027508314 -0.01421263 -0.0013754157
0.010544854 -0.0027508314 -0.0022923595 0.008710966 0.0022923595 0.012378742 0.010544854 -0.011461798
-0.012378742 -0.011003326 -0.013754157 -0.004126247 -0.008710966 -0.016963461 0.0009169438 -0.016046517
-0.013295686 0.0018338877 0.0027508314 0.0073355506 0.0032093034 0.01192027 -0.0027508314 0.004126247
-0.0004584719 -0.0009169438 -0.012378742 -0.004584719 0.008710966 0.009169438 0.005501663 -0.0022923595
-0.0004584719 -0.009169438 0.013754157 0.010086382 0.0004584719 0.014671101 0.004584719 -0.005043191
-0.0013754157 -0.004584719 0.0036677753 -0.005043191 -0.0013754157 0.005960135 -0.016963461 -0.004584719
0.0077940226 -0.015129573 -0.004126247 0.0009169438 0.0018338877 -0.0004584719 0.010086382 -0.005043191
-0.005043191 -0.005501663 -0.0018338877 0.0064186067 0.004584719 -0.005043191 -0.009169438 0.0
-0.016963461 -0.0073355506 0.019714292 0.02154818 0.0009169438 0.01192027 -0.0004584719 0.018338876
-0.012837213 0.009169438 -0.011003326 -0.005960135 0.0077940226 0.0022923595 0.0013754157 0.01421263
-0.0022923595 -0.0068770787 0.009169438 0.012378742 0.019714292 0.004126247 0.0064186067 0.01192027
-0.0036677753 -0.016963461 0.0018338877 -0.0068770787 0.005043191 -0.0032093034 -0.015588045 0.010544854
-0.015588045 -0.008252494 -0.005043191 -0.004584719 0.01421263 0.0027508314 -0.009169438 0.01192027
-0.0073355506 0.004584719 0.011003326 0.004126247 0.01925582 -0.0036677753 -0.011003326 0.0077940226
0.005501663 -0.0077940226 0.010544854 -0.005501663 0.02384054 0.0004584719 0.0073355506 0.0018338877
-0.005501663 -0.0077940226 0.012378742 -0.0013754157 0.029342202 0.010544854 -0.008710966 0.0032093034
-0.0013754157 -0.004584719 0.0018338877 -0.010086382 0.005960135 0.010544854 -0.01192027 0.0068770787
-0.0064186067 -0.004584719 -0.0013754157 -0.015588045 -0.0013754157 -0.011461798 -0.016046517 0.014671101
0.0022923595 0.020172764 0.0027508314 0.0004584719 0.00962791 -0.013295686 -0.010086382 -0.0073355506
0.00962791 -0.011461798 -0.0018338877 0.0032093034 0.008710966 0.013754157 -0.018338876 0.0027508314
0.0068770787 -0.009169438 0.00962791 -0.011003326 -0.0077940226 0.012378742 0.0009169438 -0.005960135
0.005043191 -0.0068770787 0.0068770787 0.0073355506 -0.011461798 0.005043191 0.005043191 -0.0032093034
-0.0018338877 -0.016046517 0.005043191 0.013754157 -0.008252494 -0.012837213 -0.010544854 -0.0036677753
0.012378742 0.0 0.004126247 0.0036677753 -0.0027508314 0.004126247 0.008710966 0.0013754157
0.0036677753 -0.005501663 0.0022923595 0.004584719 -0.022465123 0.0036677753 -0.012378742 -0.01421263
0.026132898 0.0004584719 -0.01421263 0.005043191 -0.0032093034 0.0022923595 0.0073355506 -0.0027508314
0.01421263 -0.0004584719 -0.0004584719 -0.0018338877 0.0022923595 -0.011003326 0.012378742 -0.005043191
0.017880404 -0.0013754157 0.013754157 -0.0013754157 -0.01192027 -0.010544854 -0.0022923595 -0.009169438
0.0013754157 -0.0027508314 -0.0073355506 0.0 -0.012378742 0.009169438 0.005960135 -0.0009169438
0.009169438 0.008710966 0.004126247 0.0022923595 0.0022923595 0.0073355506 -0.0022923595 0.0022923595

first_weights/read i1 [1, 10, 8, 8]
00000000: ea04 01b6 ee0d 63fa cced 08f6 cd03 52da
00000010: cea1 0bd2 ee1a 15c7 3c25 0a12 000a 34db
00000020: f718 2404 38f8 04a6 f452 0827 1c23 e1ad
00000030: b90d 342f 1a18 f381 81fd 2a25 0c7f a689
00000040: f6d8 f6a1 f900 250f 0fe8 ffe9 c3f9 251f
00000050: ffbe 0bd0 0907 ea07 083f fa0c 04f3 2435
00000060: b710 2bf7 1efd dcfe ae56 ec33 280a c51e
00000070: d5f5 352c 0001 f2f5 dcb5 0929 f357 cd03
00000080: f2d5 ee97 18e2 1315 17e3 faed dff2 fb08
00000090: 1cb6 06d5 0ff3 faf5 4d2e ef0a 0cf0 ed06
000000a0: 2913 3107 24f4 bef0 4229 e322 11fd bb17
000000b0: 3cf3 4127 e1e9 f0fb 22dd f729 ca3f f506
000000c0: c4e8 e190 15de d316 ccec dfdb 01dc caf9
000000d0: edb3 10e4 26f1 e6ec 1146 e10c 1bfd d32e
000000e0: d641 49f6 170b d7d9 2141 e834 020e c704
000000f0: cb0a 4933 d2fe 21e4 b2e6 fb2b b249 070d
-22 4 1 -74 -18 13 99 -6
-52 -19 8 -10 -51 3 82 -38
-50 -95 11 -46 -18 26 21 -57
60 37 10 18 0 10 52 -37
-9 24 36 4 56 -8 4 -90
-12 82 8 39 28 35 -31 -83
-71 13 52 47 26 24 -13 -127
-127 -3 42 37 12 127 -90 -119
-10 -40 -10 -95 -7 0 37 15
15 -24 -1 -23 -61 -7 37 31
-1 -66 11 -48 9 7 -22 7
8 63 -6 12 4 -13 36 53
-73 16 43 -9 30 -3 -36 -2
-82 86 -20 51 40 10 -59 30
-43 -11 53 44 0 1 -14 -11
-36 -75 9 41 -13 87 -51 3
-14 -43 -18 -105 24 -30 19 21
23 -29 -6 -19 -33 -14 -5 8
28 -74 6 -43 15 -13 -6 -11
77 46 -17 10 12 -16 -19 6
41 19 49 7 36 -12 -66 -16
66 41 -29 34 17 -3 -69 23
60 -13 65 39 -31 -23 -16 -5
34 -35 -9 41 -54 63 -11 6
-60 -24 -31 -112 21 -34 -45 22
-52 -20 -33 -37 1 -36 -54 -7
-19 -77 16 -28 38 -15 -26 -20
17 70 -31 12 27 -3 -45 46
-42 65 73 -10 23 11 -41 -39
33 65 -24 52 2 14 -57 4
-53 10 73 51 -46 -2 33 -28
-78 -26 -5 43 -78 73 7 13
